ai_service/fingerprint_model.pt (torch, 565882 bytes, 204 tensors)

conv1.weight f4 [16, 1, 8, 4]
0	0xbcee5c14	-0.02909664
1	0xbd248040	-0.04016137
2	0xbde56ec1	-0.11202765
3	0x3dfbd2d2	0.1229607
4	0x3d11bb17	0.035578813
5	0xbded83d7	-0.11597412
6	0xbd090741	-0.033454183
7	0xbe01bcc5	-0.12669666
8	0xbdd2979d	-0.10282824
9	0x3e06c8ce	0.13162538
10	0x3d48ec23	0.049053323
11	0x3d9cd97f	0.076586716
12	0xbcb30a71	-0.021855565
13	0xbd37ebaa	-0.04490248
14	0x3ca9d70c	0.020732425
15	0xbdf81508	-0.121133864
16	0xbe311c80	-0.17296028
17	0x3df3b9b0	0.119006515
18	0x3aa1bed7	0.00123402
19	0x3ddbc435	0.10730783
20	0x3e02e4cc	0.12782592
21	0x3d913a21	0.07091165
22	0xbd7804ff	-0.06055164
23	0xbcd8ef3a	-0.02648126
24	0xbc44cdcc	-0.012011956
25	0x3bd274de	0.006422623
26	0x3c26d2bb	0.010182078
27	0xbe0062bf	-0.12537669
28	0xbdc10b0e	-0.09425937
29	0x3dffefa0	0.12496877
30	0x3c2fa2bb	0.01071995
31	0xbd86d753	-0.065840386
32	0x3dd02492	0.10163225
33	0xbd89c0f2	-0.067262545
34	0xbdb893bf	-0.09012555
35	0x3dd0fe78	0.10204786
36	0xbe18386f	-0.14865278
37	0xbdc392f0	-0.095495105
38	0x3df00535	0.11719743
39	0xbd0564ee	-0.032566957
40	0xbdb77e3e	-0.08959626
41	0x3e04531e	0.12922332
42	0x3c02d163	0.007984492
43	0xbe36a074	-0.17834646
44	0xbe1c0b80	-0.15238762
45	0xbd842848	-0.064529955
46	0xbcde2044	-0.027114995
47	0xbe1489d9	-0.1450571
48	0xbdae0a9a	-0.08498116
49	0x3d3a6de6	0.045514964
50	0xbe2d20fe	-0.16907117
51	0xbe2b9bd0	-0.16758657
52	0x3cedc35a	0.029023815
53	0x3caec46b	0.021333894
54	0xbe2c291f	-0.16812561
55	0xbe2388db	-0.15970175
56	0x3e033884	0.12814528
57	0x3e24ea1c	0.1610493
58	0xbd9b5e44	-0.07586339
59	0x3e370008	0.17871106
60	0x3df0560e	0.11735164
61	0x3e1e6c81	0.15471078
62	0xbd815693	-0.06315341
63	0xbce8ce95	-0.028418818
64	0x3d9ff633	0.07810631
65	0x3d43b99f	0.047784444
66	0xbe130c7e	-0.14360234
67	0x3dbf14f6	0.0933017
68	0x3e1c1614	0.15242797
69	0xbdee1f9b	-0.11627122
70	0xbe198abe	-0.14994332
71	0xbe256bcf	-0.16154407
72	0xbe07f1d4	-0.13275844
73	0xbdb7fbf2	-0.08983602
74	0xbdd6a1bf	-0.10480069
75	0xbe262e73	-0.16228656
76	0x3da7904b	0.081818186
77	0x3e16f3d9	0.14741458
78	0x3dfed5a5	0.12443093
79	0x3db31341	0.08743907
80	0x3d58f4e1	0.05296791
81	0xbdb69d6b	-0.08916744
82	0xbe1da7a5	-0.15395983
83	0xbded004f	-0.115723245
84	0x3d852989	0.06502063
85	0x3d0179fa	0.031610467
86	0x3ca85d6c	0.02055236
87	0xbddb96c3	-0.10722115
88	0xbdc58c4c	-0.096459
89	0xbd9f25de	-0.077708945
90	0xbcede4a4	-0.029039688
91	0xbd1e5ba0	-0.0386616
92	0x3b8adbe8	0.0042376406
93	0xbd833c01	-0.06407929
94	0xbce6f7c2	-0.028194312
95	0xbdf54681	-0.11976338
96	0x3d9a1507	0.07523542
97	0xbe1c5daa	-0.15270105
98	0x3cc895e4	0.024485536
99	0xbe324c49	-0.17411913
100	0xbde564ce	-0.112008676
101	0x3e26caec	0.16288346
102	0xbd272bd5	-0.040813286
103	0xbd26dc44	-0.040737405
104	0x3da81d20	0.0820868
105	0xbe1eb572	-0.15498903
106	0xbd32d297	-0.043657865
107	0xbc3d76cf	-0.011563971
108	0x3c9ff3fe	0.019525524
109	0xbcb784f1	-0.022402259
110	0xbdefb15f	-0.11703753
111	0xbe21fd62	-0.15819314
112	0x3bd4eb1b	0.0064977533
113	0x3e2029ea	0.15640989
114	0xbd907d9b	-0.07055207
115	0x3cd4e2f0	0.025987118
116	0x3df7a15e	0.12091325
117	0xbe2357f6	-0.15951523
118	0x3e29c9c2	0.16580871
119	0x3e1b5178	0.15167797
120	0xbd6123ee	-0.054965906
121	0x3e378a21	0.17923786
122	0x3e135b61	0.14390327
123	0x3e248586	0.1606656
124	0x3e34da82	0.17661479
125	0x3d8d78b6	0.069077894
126	0x3dfb5c1e	0.12273429
127	0xbd9cb61e	-0.076519236
128	0x3d68be70	0.05682224
129	0x3e499b7a	0.19688216
130	0xbd0a3ca6	-0.033749245
131	0x3d8cca0c	0.06874475
132	0xbd8210a7	-0.063508324
133	0x3dbd3f66	0.09240608
134	0x3dad3b81	0.08458615
135	0x3e243487	0.16035663
136	0x3ce5ad8e	0.028036859
137	0x3de4ad62	0.11165883
138	0x3e099d2d	0.13438864
139	0x3d632f4b	0.055465024
140	0xbe0f5a00	-0.13999176
141	0x3e1c0671	0.15236832
142	0xbdb0a546	-0.086252734
143	0x3ddec5b9	0.10877556
144	0xbdd927bd	-0.106032826
145	0x3d9fcff2	0.07803334
146	0xbbd70591	-0.006561943
147	0xbe070de4	-0.13188893
148	0x3ddabc76	0.10680477
149	0xbc71ced9	-0.014758789
150	0xbd4142c0	-0.0471828
151	0xbceb0b0c	-0.028691791
152	0x3e16e9d0	0.1473763
153	0x3e065935	0.13119967
154	0x3d9a9423	0.07547786
155	0x3dcf0ee4	0.10110262
156	0x3df1ac00	0.118003845
157	0x3dcdeae2	0.10054566
158	0x3e36284a	0.17788807
159	0x3e08dc05	0.13365181
160	0xbdbf4d7d	-0.093409516
161	0xbcf0ac31	-0.029378982
162	0x3d8a6413	0.06757369
163	0x3df1d90f	0.11808979
164	0xbe1958d2	-0.14975289
165	0xbda719ee	-0.081592426
166	0xbdb9370e	-0.09043704
167	0x3e1a7238	0.15082633
168	0x3e1b81c4	0.1518622
169	0xbdb439d7	-0.088000946
170	0xbd7a3c9a	-0.06109295
171	0xbc12e33c	-0.00896531
172	0xbc8b78a4	-0.0170253
173	0xbd8f1642	-0.06986667
174	0xbe112fea	-0.14178434
175	0xbdd822f1	-0.105535395
176	0xbd13ef2e	-0.03611677
177	0x3b837282	0.004011453
178	0xbac43826	-0.0014970347
179	0xbe2cdb06	-0.16880426
180	0x3e1091b1	0.14118077
181	0xbdd80ebf	-0.105496876
182	0xbd4217ba	-0.04738591
183	0x3e1f21b6	0.15540203
184	0xbc34c678	-0.011033647
185	0xbe0e03ed	-0.13868685
186	0x3dceec83	0.10103705
187	0xbd87ca9a	-0.0663044
188	0x3e22546a	0.15852514
189	0xbd4ccd7d	-0.050000656
190	0xbdf9a221	-0.12189127
191	0xbdf53904	-0.119737655
192	0xbc8a475f	-0.016879736
193	0xbd30ee16	-0.043195806
194	0x3ded44cf	0.1158539
195	0xbc073aea	-0.008253792
196	0xbdf10a62	-0.117695585
197	0x3c7ce173	0.015434611
198	0xbe0912bc	-0.13386053
199	0x3ca11970	0.01966545
200	0x3cb9e2e4	0.022691198
201	0xbe34eac6	-0.17667684
202	0xbe0575d6	-0.13033232
203	0xbdc54b81	-0.09633542
204	0xbdb0d8ac	-0.08635077
205	0xbd45419b	-0.04815827
206	0x3d5f7e5b	0.05456386
207	0xbe1567db	-0.14590399
208	0x3d977f92	0.07397379
209	0xbe0b9739	-0.13631906
210	0x3e0c3017	0.1369022
211	0xbdd082f6	-0.10181229
212	0xbe13fcde	-0.1445193
213	0x3de3782a	0.11106904
214	0x3e02c0ae	0.12768814
215	0xbd6e69b3	-0.05820627
216	0x3e18b31e	0.14912078
217	0x3c9255c1	0.017863156
218	0x3d83ceac	0.06435904
219	0xbb7f8f24	-0.003899523
220	0xbd178317	-0.03699025
221	0xbd3ac260	-0.045595527
222	0xbe0731f3	-0.13202648
223	0x3e112292	0.14173344
224	0x3df4bdc7	0.1195026
225	0x3e3be6f4	0.1834982
226	0xbe1a63a8	-0.15077078
227	0x3e4a43b7	0.19752394
228	0x3e13fe4f	0.1445248
229	0x3d920976	0.07130711
230	0xbd59272a	-0.053015865
231	0x3e172b90	0.14762712
232	0x3e0db093	0.13836889
233	0x3e3245fa	0.17409506
234	0xbdfdf7b8	-0.12400764
235	0x3d443aab	0.047907513
236	0x3db40264	0.087895185
237	0xbe1ce330	-0.1532104
238	0x3e3fb472	0.18721178
239	0x3e06a15e	0.13147494
240	0xbdf485fe	-0.119396195
241	0xbe074d50	-0.13213086
242	0x3cdf90eb	0.027290782
243	0x3e25911f	0.1616864
244	0x3d97ef07	0.07418638
245	0x3d357559	0.044301365
246	0x3c01ff2d	0.007934374
247	0xbe20c33f	-0.1569948
248	0x3e04c3fc	0.12965387
249	0x3e070af8	0.13187778
250	0xbdd8db1b	-0.10588666
251	0xbc6f6a85	-0.014612799
252	0x3e47cc80	0.19511604
253	0xbd49003a	-0.04907248
254	0xbdd3422b	-0.10315355
255	0x3df3a113	0.11895957

conv1.bias f4 [16]
0	0xbcde35f9	-0.027125346
1	0xbdfcd802	-0.12345888
2	0x3cd9213e	0.026505109
3	0xbd674642	-0.056463487
4	0x3d59ad86	0.053144
5	0x3df40ae5	0.119161405
6	0x3c093c5e	0.008376209
7	0xbdaea0ca	-0.08526762
8	0x3d5a129e	0.05324041
9	0x3dd37f24	0.103269845
10	0xbe44f4d8	-0.19234025
11	0xbc15539d	-0.009114173
12	0xbe28e5d3	-0.16493921
13	0xbe2d3a90	-0.16916871
14	0xbe13a2b4	-0.14417535
15	0xbe302ac8	-0.1720382

conv2.weight f4 [32, 16, 8, 4]
0	0x3d0ff73a	0.035147883
1	0x3ce4ded2	0.02793828
2	0xbcdf66bd	-0.02727067
3	0xbcc6c44c	-0.024263524
4	0x3d1eeda4	0.03880085
5	0x3c136318	0.008995794
6	0x3c962f05	0.018332968
7	0x3c1c4677	0.0095382845
8	0xbc5a60b4	-0.01332872
9	0xbce25256	-0.027627151
10	0x3caac7ec	0.020847283
11	0xbd40eb82	-0.047099598
12	0xbd1fb7ba	-0.038993575
13	0x3c3ab8ec	0.011396628
14	0xbc6805fe	-0.014161585
15	0x3b15c2d8	0.0022851732
16	0x3ca1da45	0.0197574
17	0xbcd6b838	-0.02621089
18	0xbcdaed64	-0.026724525
19	0xbce25675	-0.027629117
20	0xbd018563	-0.031621348
21	0xbb6d96a0	-0.003625311
22	0x3d2fad19	0.04288969
23	0x3b791d1d	0.0038011738
24	0x3ccfb6df	0.025355754
25	0xbc47e678	-0.012200944
26	0x3c5767da	0.013147319
27	0xbccdc780	-0.025119543
28	0x3bd1300b	0.006383901
29	0x3c9078de	0.017635759
30	0xbc5be7ea	-0.013421992
31	0x3d4174bb	0.047230463
32	0x3c7ba593	0.0153593
33	0x3cce2ba1	0.025167288
34	0x3d4ab0a1	0.049484853
35	0x3cdbb5bd	0.026820058
36	0xbb13e285	-0.0022565436
37	0x3cbd2ec9	0.023093598
38	0x3d245476	0.04011961
39	0xbd0c5de7	-0.03426924
40	0xbba8e24c	-0.00515393
41	0x3c737457	0.014859281
42	0xbc92d1bb	-0.017922273
43	0xbd2b0807	-0.041755702
44	0xbcf82cd8	-0.03029482
45	0xbd01ddbb	-0.0317056
46	0x3b4ad1c4	0.0030947784
47	0x3c0c49ea	0.008562544
48	0xbb2da2bc	-0.0026494702
49	0xbd034efe	-0.032057755
50	0x3c24d873	0.010061371
51	0x3c17fbd4	0.009276349
52	0xbc5c67af	-0.0134524545
53	0x3c7f71c8	0.015591092
54	0xbc605476	-0.013692012
55	0x3c84b958	0.01620166
56	0x3d215416	0.03938683
57	0x3cff431d	0.031159932
58	0x3bbf097f	0.0058299894
59	0x3d50be96	0.050963007
60	0x3b517cd6	0.0031965277
61	0xbcf17514	-0.029474773
62	0x3d0800c0	0.03320384
63	0x3d3b7373	0.045764398
64	0x3cb0d72b	0.021586975
65	0x3d2020a6	0.039093636
66	0x3cc12e2f	0.023581592
67	0x3cb94f7e	0.022620913
68	0x3cd99f43	0.0265652
69	0xbd046ecf	-0.032332238
70	0x3991953c	0.00027767743
71	0xbc65c937	-0.014025024
72	0x3c2f542c	0.0107012205
73	0xbd1dfefb	-0.038573246
74	0xbad71fae	-0.001641264
75	0x3c62bdc1	0.013839186
76	0xbc98570e	-0.018596198
77	0xbc90103e	-0.01758587
78	0xbd04c410	-0.032413542
79	0x3bc08c77	0.0058761197
80	0xbd04de2d	-0.032438446
81	0xbbb64235	-0.0055620917
82	0x3b33aaef	0.0027415117
83	0x3c0110d1	0.0078775445
84	0xbce0a490	-0.02742222
85	0x3c52403e	0.012832699
86	0xbc70bdae	-0.014693661
87	0xbbb0c72a	-0.005394836
88	0xbcd9b729	-0.026576595
89	0xbcfddf8f	-0.03099039
90	0x3c0c70e2	0.008571835
91	0x3c0fe0ee	0.008781655
92	0x3d30f02f	0.043197807
93	0x3d452b2d	0.04813688
94	0x3d2789ae	0.040902786
95	0x3cc5410d	0.02407887
96	0x3b4a0e42	0.0030831252
97	0x3b12cfdb	0.0022401724
98	0xbd653f9c	-0.055968866
99	0x3c2e0857	0.010622106
100	0x3c4c453d	0.01246768
101	0xbbd7557b	-0.0065714694
102	0xbba0755f	-0.004896804
103	0x3d317313	0.043322634
104	0x3d64eeed	0.05589192
105	0x3c9df5e0	0.019282281
106	0x3c00d927	0.007864273
107	0x3becfe5d	0.007232471
108	0x3d0e3546	0.034718774
109	0xbccb18ee	-0.02479216
110	0xbd0dd982	-0.03463126
111	0xbce466fd	-0.02788114
112	0x3c18b7fe	0.009321211
113	0x3cd9a787	0.026569141
114	0x3ba80bc6	0.0051283566
115	0x3bb1247d	0.005405961
116	0xbd5bebe0	-0.053691745
117	0xbd33d2fc	-0.043902382
118	0xbd19614d	-0.03744631
119	0xbd2e8098	-0.042603105
120	0xbd087f34	-0.033324435
121	0xbd2af538	-0.041737765
122	0xbd19a888	-0.03751424
123	0xbd48317f	-0.04887533
124	0xbb0f658b	-0.0021880593
125	0xbc8706b6	-0.016482692
126	0xbc5383d7	-0.012909851
127	0x3b9aefee	0.004728309
128	0xbd26f1da	-0.04075799
129	0xbca4932a	-0.020089705
130	0xbb8f4bef	-0.0043730657
131	0xbd2f47f5	-0.042793233
132	0x3cc01524	0.02344758
133	0xbd0a19f3	-0.033716153
134	0x3cd4cc72	0.025976393
135	0x3d2d2e4d	0.042280484
136	0x3cafb02c	0.02144631
137	0xbc0baca5	-0.008525048
138	0x3d3e0f88	0.04640153
139	0xbc659a3b	-0.014013822
140	0x3c2dae2c	0.010600608
141	0x3d1aa8ec	0.037758753
142	0x3d5045e6	0.05084791
143	0x3c4a5e55	0.012351592
144	0xbb811899	-0.0039397
145	0xbb8a6a91	-0.0042241295
146	0xbd315dda	-0.043302394
147	0x3c058434	0.008149195
148	0xbd143442	-0.03618265
149	0x3b545b97	0.0032403225
150	0xbc385f1c	-0.011253145
151	0x3ce800aa	0.02832063
152	0xbc964300	-0.018342495
153	0x3cf13f97	0.029449267
154	0xbc836e31	-0.016043754
155	0xbc3470d0	-0.011013225
156	0xbd36f410	-0.04466635
157	0x3d0e45c9	0.03473452
158	0xb96d8bbd	-0.00022654138
159	0xbd2c7e71	-0.04211277
160	0x3be2f837	0.006926562
161	0x3c9dee0c	0.019278549
162	0xbbcdfa7f	-0.006285965
163	0x3d1548f7	0.036446538
164	0x3ca4d69a	0.020121861
165	0xbc356095	-0.01107039
166	0x3d1a1895	0.0376211
167	0x3cdc8c1a	0.026922274
168	0xbbf55911	-0.007487424
169	0xbb7e59c9	-0.003881084
170	0x3b9f8b7b	0.0048689223
171	0xbcc858f1	-0.024456473
172	0x3cb65def	0.022261588
173	0xbd2459e5	-0.040124793
174	0xbcd24dac	-0.025671802
175	0x3c3531f0	0.011059269
176	0xbd23303c	-0.03984092
177	0xbc035505	-0.008015876
178	0xbc5b8029	-0.013397255
179	0x3cca7b83	0.024717098
180	0x3be83e22	0.007087485
181	0xbcb32bcd	-0.021871472
182	0x3d24bb6f	0.040217813
183	0xbc490ba3	-0.012270841
184	0x3b51ec3c	0.0032031676
185	0x3cbe39c7	0.02322091
186	0xbcae4de2	-0.021277372
187	0x3b6b7872	0.0035929945
188	0xbbd1a50e	-0.00639785
189	0xbb6a1681	-0.003571898
190	0xbbf4685a	-0.0074587287
191	0x3d00af7b	0.03141735
192	0xbca185c5	-0.019717107
193	0xbceb6e77	-0.028739197
194	0x3c931077	0.017952187
195	0x3c79bede	0.01524326
196	0x3bd19c9f	0.0063968445
197	0x3b8ec72a	0.0043572383
198	0x3d30d68e	0.043173365
199	0xbc2c05d8	-0.01049944
200	0xbd1488d5	-0.036263306
201	0xbd2afec0	-0.041746855
202	0x3c2a8717	0.0104081845
203	0x3c855eac	0.016280495
204	0xbba87eb5	-0.005142058
205	0xbd2c85a5	-0.04211964
206	0xbd2c8149	-0.042115483
207	0xbd22ea26	-0.039774083
208	0x3cb0659e	0.02153283
209	0x3c4e6972	0.012598382
210	0xbc949129	-0.018135624
211	0xbd200fd7	-0.039077606
212	0x3cdc8147	0.026917113
213	0x3bcc1d06	0.006229046
214	0x3d3a2a99	0.04545078
215	0xbcf77987	-0.030209316
216	0xbcd558d8	-0.02604334
217	0x3c87cd1d	0.016577298
218	0x3d047b42	0.03234411
219	0x3d08312f	0.03325003
220	0x3d4b2b35	0.049601752
221	0x3d0921e0	0.03347957
222	0x3cd7e160	0.026352584
223	0xbc857e04	-0.01629544
224	0x3d280b2b	0.041026276
225	0xbcdaa4d7	-0.02668993
226	0x3cdebf70	0.027190894
227	0x3c83b1a7	0.016075922
228	0xbce275aa	-0.027643997
229	0xbc11856b	-0.008881907
230	0xbb9ee201	-0.004848719
231	0x3cf9aea2	0.03047878
232	0x3d7786a2	0.06043113
233	0x3cd5e943	0.026112204
234	0xbc14a1d1	-0.009071783
235	0x3d1ffe0f	0.03906065
236	0x3d65a480	0.056065083
237	0xbc4c105b	-0.012455071
238	0x3d24cd0f	0.04023462
239	0x3cda87f4	0.026676156
240	0x3cdfc135	0.027313808
241	0x3c981a3c	0.018567197
242	0x3d025e7a	0.03182838
243	0xbd10456c	-0.035222456
244	0x3c97dd6f	0.018538205
245	0xbd1f76fe	-0.03893184
246	0xbb8204ba	-0.0039678486
247	0x3d009f6f	0.031402048
248	0xbd226777	-0.039649453
249	0xbd1452cf	-0.036211785
250	0xbc986a7e	-0.018605467
251	0xba387769	-0.00070368365
252	0xbc24a6c4	-0.010049526
253	0xbd323bfc	-0.043514237
254	0x3ac3c436	0.0014935795
255	0xbc8c966c	-0.01716157

conv2.bias f4 [32]
0	0x3d272742	0.040808924
1	0x3d367811	0.044548098
2	0x3d3965e1	0.045263175
3	0x3cf90cfb	0.030401697
4	0x3c9e5fb4	0.019332744
5	0xbd2d75d6	-0.042348705
6	0x3d2ad229	0.04170433
7	0xbca6a436	-0.020341974
8	0xbd302094	-0.04299982
9	0xbcdf34a6	-0.027246784
10	0xbd0be38d	-0.034152556
11	0xbd03629e	-0.03207647
12	0xbb903ee2	-0.0044020275
13	0x3c9d755f	0.019221006
14	0xbd075109	-0.033036266
15	0xbd23be76	-0.03997656
16	0x3ca998e4	0.020702787
17	0x3ba34d55	0.004983584
18	0x3c960867	0.018314553
19	0xbcd89f77	-0.026443226
20	0x3ce82f00	0.028342724
21	0xbcd89be0	-0.026441514
22	0x3d3ab5bf	0.045583483
23	0x3c58047b	0.013184662
24	0xbd01c282	-0.031679638
25	0x3c79b744	0.015241448
26	0x3d31effc	0.043441758
27	0xbcd3dada	-0.025861192
28	0x3c370765	0.011171197
29	0xbcb2bfdf	-0.021820007
30	0xbd053285	-0.032518882
31	0x3c857033	0.016288852

conv3.weight f4 [64, 32, 8, 4]
0	0x3c9ce79b	0.019153407
1	0x3cc89093	0.024483
2	0x3b68bb2b	0.0035511951
3	0x3b806879	0.003918704
4	0xbba84bc4	-0.005135985
5	0x3c8138a4	0.015774079
6	0x39a1c1ff	0.0003085285
7	0x3c57ce07	0.013171679
8	0xba9042c2	-0.0011006224
9	0xbc116db6	-0.008876255
10	0x3caae194	0.020859517
11	0x3c9f8f43	0.019477492
12	0xbaacf50a	-0.0013195586
13	0xbc3d4439	-0.01155191
14	0x3896c259	7.1887574e-05
15	0x3b4f761d	0.0031656094
16	0xbbf0016e	-0.007324389
17	0xbc8b5349	-0.017007487
18	0xbc5c69ee	-0.01345299
19	0xbcb5152d	-0.022104824
20	0xbc0ea149	-0.008705446
21	0xbcac2a52	-0.021016274
22	0x3c3bdc17	0.011466048
23	0xbc062459	-0.008187377
24	0xbcc5405c	-0.02407854
25	0xbb878f2d	-0.004136941
26	0xbca918b1	-0.020641657
27	0xbce1053d	-0.027468318
28	0x3c723e02	0.014785292
29	0x3c627654	0.013822157
30	0xbb5cf199	-0.003371334
31	0xbccd751a	-0.025080252
32	0x3ccd1791	0.025035651
33	0x3cc7bb67	0.024381353
34	0x3cf2d5a5	0.02964289
35	0x3cd7f1d2	0.026360426
36	0x3cd71f58	0.026260063
37	0xbcc67d49	-0.024229662
38	0xbcf989d7	-0.030461235
39	0xbc87fd6b	-0.016600331
40	0x3caf7e5b	0.021422556
41	0xbd084827	-0.033271935
42	0xbc1605f8	-0.0091566965
43	0x3cf5ae0e	0.029990222
44	0x3d074e26	0.033033513
45	0x3c5fa647	0.013650483
46	0x3d0b731e	0.03404533
47	0x3c28a803	0.010293963
48	0x3ca3f21f	0.020012913
49	0xbba646cc	-0.0050743576
50	0x3c6fc133	0.014633465
51	0xbc1909b0	-0.009340689
52	0x3c73303b	0.014843042
53	0xbd22047e	-0.039555065
54	0xbd0f055d	-0.034917224
55	0x3c68bb82	0.014204862
56	0xbbb7e678	-0.005612191
57	0xba75079c	-0.0009347142
58	0xbcbef39b	-0.02330952
59	0xbc82f115	-0.015984097
60	0x3ce1ae29	0.027548866
61	0x3cfed799	0.031108664
62	0x3c9df524	0.019281931
63	0x3c794442	0.015214028
64	0xbc92a109	-0.017899053
65	0x3ca1c9a6	0.019749474
66	0x3b6edfad	0.003644924
67	0x3bda7d69	0.006667782
68	0xbc1bbadd	-0.009505001
69	0x3c6a2318	0.014290594
70	0x3c924ec7	0.01785983
71	0xbcbe31f8	-0.023217186
72	0x3c7db131	0.01548414
73	0x3c4e69fc	0.012598511
74	0xbbd6dc51	-0.0065570255
75	0xbb3ecb7e	-0.002911299
76	0xbc976545	-0.018480906
77	0x3c5080ff	0.012726068
78	0xbc69701c	-0.01424792
79	0xbca098b3	-0.019604063
80	0xbbb1fe19	-0.005431902
81	0xbcdb346a	-0.026758391
82	0xbc66419f	-0.014053731
83	0xbc05d0a2	-0.008167418
84	0x3d0fef44	0.03514029
85	0xbc417b89	-0.011809238
86	0x3ccc0369	0.02490397
87	0x3c1f2085	0.009712343
88	0x3cb8f4f6	0.022577744
89	0xbc248ef9	-0.010043853
90	0x3b8d3113	0.0043088286
91	0xbb0bae60	-0.0021313652
92	0x3cd533b7	0.026025636
93	0xbca0ae8a	-0.019614477
94	0x3c26ec2e	0.010188146
95	0x3d100804	0.035163894
96	0x3ccfa70a	0.025348205
97	0xba63a28a	-0.0008683583
98	0x3b0a4b45	0.0021101993
99	0x3ca5fcf6	0.020262223
100	0x3cb00461	0.021486463
101	0xbc3ce3cc	-0.01152892
102	0xbc276cc5	-0.010218804
103	0x3c74af17	0.014934323
104	0xbcc2f539	-0.023798572
105	0xbc028f2d	-0.007968706
106	0xbb9f7db7	-0.0048672813
107	0xbca794f4	-0.020456769
108	0xbcfb64c7	-0.030687703
109	0xbd353446	-0.044239305
110	0xbcedc81e	-0.029026087
111	0xbd4b4e13	-0.049635004
112	0x3cf9f5fb	0.0305128
113	0xb90a7f23	-0.00013208068
114	0x3c137282	0.008999469
115	0x3ce61592	0.028086457
116	0xbcdb0275	-0.02673457
117	0xbc5818c8	-0.013189502
118	0xbca7b455	-0.020471731
119	0xbc8f1fe6	-0.017471265
120	0x3c3f554c	0.011678051
121	0x3c081527	0.008305824
122	0xbc8dd64c	-0.017314099
123	0xbc082eef	-0.008311971
124	0xbc263d35	-0.010146429
125	0xbacec1ec	-0.0015774346
126	0xbb2da3a8	-0.0026495252
127	0x3c1212fc	0.008915659
128	0xbbca059a	-0.0061652185
129	0xbabcad0b	-0.0014394833
130	0x3be2e672	0.006924444
131	0xbb1e33c3	-0.002413974
132	0xbc214b06	-0.009844547
133	0x3bfefbe4	0.0077814925
134	0x3ca44131	0.020050617
135	0x3c0b349b	0.008496429
136	0xbcc0c749	-0.023532527
137	0xbc5bb4ff	-0.013409852
138	0xbccebcc2	-0.025236491
139	0x3cc1bfc8	0.023651019
140	0xbcc333f0	-0.023828477
141	0xbc9f3b32	-0.019437406
142	0x3c66188c	0.014043938
143	0x3ca48789	0.02008416
144	0x3c76e2f3	0.015068757
145	0xbc7a3bee	-0.015273077
146	0x3cae52b5	0.021279672
147	0x3bfc611b	0.0077020056
148	0xbcf1936e	-0.029489245
149	0xbbb6e4ac	-0.005581459
150	0xbce4ea65	-0.0279438
151	0xbc181de5	-0.009284471
152	0x3bfda1fc	0.0077402573
153	0xbceb37dc	-0.02871316
154	0xba205487	-0.0006116111
155	0x3c9f07a0	0.019412816
156	0x3ab5728c	0.0013843342
157	0x3cdd4128	0.027008608
158	0xbb8cee70	-0.004300885
159	0x3992cbc9	0.00027999122
160	0xbcbecded	-0.023291552
161	0xbc08c141	-0.008346857
162	0x3c0e3dde	0.0086817425
163	0x3c7dc339	0.015488439
164	0x3cf16356	0.029466312
165	0xbb42a2d0	-0.0029699095
166	0x3d004102	0.031311996
167	0xbb57a0ff	-0.0032902358
168	0x3c36d394	0.011158843
169	0x3ac61af0	0.0015114229
170	0xbced6b36	-0.028981786
171	0x3c8dbd88	0.01730229
172	0xbba4a192	-0.0050241435
173	0xbd16d6a6	-0.0368258
174	0xbd319c4f	-0.043361958
175	0xbc638bec	-0.01388834
176	0x3b607198	0.0034247395
177	0x3d12242a	0.03567902
178	0x3cbf52bd	0.023354882
179	0xb99eadea	-0.00030265684
180	0x3cba6300	0.022752285
181	0xbb368c51	-0.0027854631
182	0x3d21fa79	0.03954551
183	0x3d187324	0.03721918
184	0x3cbe2254	0.023209728
185	0x3cd6a4d1	0.026201637
186	0x3bd0659e	0.00635977
187	0x3c2b9281	0.010471941
188	0x3a986731	0.0011627433
189	0xbd008691	-0.031378333
190	0xbc9e05b2	-0.019289825
191	0x3babe6eb	0.0052460334
192	0x3c8c63e0	0.017137468
193	0xbbb361ae	-0.005474291
194	0xbcbbd0b8	-0.022926673
195	0x3c3aab24	0.011393342
196	0x3b9a3075	0.0047054836
197	0xbcaaac12	-0.020834003
198	0x39e56324	0.0004375215
199	0x3b1864f5	0.0023253534
200	0xbd06414d	-0.03277712
201	0x3b474218	0.0030404385
202	0xbd0a86e2	-0.03382004
203	0x3cc4b724	0.02401311
204	0xbc5a13d4	-0.013310391
205	0xbbba9099	-0.005693507
206	0xbc8c7ef3	-0.017150378
207	0x3ae22ae9	0.001725522
208	0x3cde8edb	0.027167728
209	0xbc1b462e	-0.009477181
210	0x3aa06f0c	0.0012240126
211	0xbb402313	-0.002931778
212	0xb85a8a47	-5.210403e-05
213	0x3c3086d3	0.010774332
214	0x3c954bdf	0.018224655
215	0xbc809384	-0.015695341
216	0xbbc19dc0	-0.005908698
217	0x3cd244ea	0.025667626
218	0xbca66a2b	-0.020314297
219	0x3c7bdbef	0.0153722605
220	0x3ca09f99	0.019607352
221	0x3c1d4238	0.009598307
222	0xbbb5a6d9	-0.0055435714
223	0xbc55ceb0	-0.013049766
224	0xbba097f0	-0.004900925
225	0xbbd6c814	-0.006554613
226	0xbacf7420	-0.0015827455
227	0xbb61f3c0	-0.0034477562
228	0xbbef83c8	-0.0073094107
229	0xbc9e9d20	-0.019362032
230	0x3cb664ee	0.022264924
231	0x3c1fe427	0.009758986
232	0x3c32bf01	0.010909797
233	0x3c835189	0.01603009
234	0x3ae04bc9	0.001711243
235	0x3ca55d0e	0.020185973
236	0x3c1f391c	0.009718206
237	0xbc2ed841	-0.010671676
238	0x3938aafd	0.00017611306
239	0xbcdf1ec4	-0.02723635
240	0xbc84a408	-0.016191497
241	0x3ce9cf97	0.02854137
242	0x3cfd6d32	0.030935857
243	0xbcb710de	-0.02234691
244	0xbc5ef01c	-0.013607051
245	0x3c82df9a	0.015975762
246	0xbcedd329	-0.029031353
247	0xbb81bb8a	-0.003959124
248	0xbceede43	-0.029158717
249	0xbc8141f1	-0.015778514
250	0xbc818761	-0.015811624
251	0xbac23620	-0.0014817156
252	0xbc082228	-0.008308925
253	0xbc906c6f	-0.01762983
254	0x3c897c19	0.016782807
255	0xbc629f80	-0.013831973

conv3.bias f4 [64]
0	0x3cf7d314	0.030252017
1	0x3b880f0b	0.004152184
2	0xbc2ed87b	-0.01067173
3	0xbb17f4aa	-0.0023186603
4	0x3ce498a6	0.02790482
5	0xbcac12ae	-0.021005
6	0x3cafd3fe	0.02146339
7	0xbca17a3c	-0.019711606
8	0x3cd7c2ec	0.026338063
9	0xbca30e19	-0.019904183
10	0xbcdaf4d2	-0.026728068
11	0x3ce007a0	0.027347386
12	0xbcd914c6	-0.026499163
13	0x3cea2bba	0.028585304
14	0x3bde6889	0.006787364
15	0xbcc163d5	-0.023607174
16	0xbb9066f6	-0.004406805
17	0x3c5b6667	0.013391114
18	0x3c671126	0.01410321
19	0x3cebf225	0.028801987
20	0x3ce69c4b	0.028150698
21	0xbcbd4849	-0.023105757
22	0x3c6a4b0d	0.01430012
23	0xbbca8d01	-0.0061813598
24	0xbca4b4bd	-0.020105714
25	0xbc61101c	-0.013736751
26	0xbce2d7da	-0.027690817
27	0xbb7feb1d	-0.003905005
28	0xbd095070	-0.033523977
29	0xbc7d2056	-0.015449604
30	0x3cc89930	0.024487108
31	0xbc7b4202	-0.015335562
32	0xbcc6948f	-0.02424076
33	0xbc065e4e	-0.008201195
34	0x3c0c73be	0.008572517
35	0xbc6f191b	-0.014593388
36	0xbcc491e9	-0.023995357
37	0x3cea5f07	0.028609766
38	0xbc2789cc	-0.010225724
39	0xbcc3f339	-0.023919689
40	0x3c2133fe	0.009839056
41	0x3cf97d74	0.030455329
42	0xbc1aff16	-0.009460231
43	0x3cbc52e9	0.022988753
44	0x3bd85c47	0.006602797
45	0xbbebdffc	-0.007198332
46	0x3c3a2da2	0.011363419
47	0xbd033f93	-0.03204305
48	0xbc16ee39	-0.00921207
49	0xbbfb36dc	-0.007666452
50	0xbcb9c5bd	-0.022677297
51	0xba243794	-0.00062643853
52	0x3caa0f88	0.020759359
53	0xbcb038f6	-0.021511536
54	0xbcbd1817	-0.023082776
55	0x3bd4f3c7	0.006498787
56	0xbc155c36	-0.009116223
57	0xbbc7dbf1	-0.006099217
58	0x3c8da7a0	0.017291844
59	0x3c75038d	0.01495446
60	0x3cc5e7c2	0.024158362
61	0x3ccea600	0.02522564
62	0xbc4009bb	-0.01172107
63	0x3c21deb5	0.009879758

norm1.weight f4 [16]
0	0x3f7b78ca	0.98231184
1	0x3f803c8f	1.0018481
2	0x3f7ba49d	0.98298055
3	0x3f875a8d	1.0574509
4	0x3f7ff28f	0.9997949
5	0x3f7bbd0d	0.98335344
6	0x3f7efab7	0.9960131
7	0x3f813ab3	1.0096039
8	0x3f8ca373	1.0987381
9	0x3f83cf06	1.0297554
10	0x3f834e91	1.0258352
11	0x3f88099e	1.0627935
12	0x3f81b934	1.0134645
13	0x3f7709a6	0.964991
14	0x3f803c49	1.0018398
15	0x3f80cea9	1.0063068

norm1.bias f4 [16]
0	0xbb159b44	-0.0022828141
1	0x3b52c259	0.0032159297
2	0xbbaf90ae	-0.0053578233
3	0x3cfa0016	0.03051762
4	0x3ade66e0	0.0016967915
5	0xbb44ad4b	-0.0030010517
6	0xbb773aaa	-0.0037724175
7	0x3cadbcc6	0.021208178
8	0x3d3c79f3	0.046014737
9	0x3bf37595	0.0074297884
10	0x3d0f5e19	0.035001848
11	0x3c825334	0.015908815
12	0x3cabe9a8	0.02098544
13	0xba520810	-0.00080120657
14	0xbb276c0e	-0.0025546583
15	0x3c31687b	0.010828133

norm2.weight f4 [32]
0	0x3f80c7b0	1.006094
1	0x3f80b647	1.0055627
2	0x3f7de8d4	0.9918339
3	0x3f7daec2	0.99094784
4	0x3f7f50a1	0.99732405
5	0x3f83a0c6	1.0283439
6	0x3f8075a2	1.0035899
7	0x3f7fb682	0.9988786
8	0x3f7f9755	0.9984029
9	0x3f7e6b78	0.99382734
10	0x3f80d01d	1.0063511
11	0x3f811f40	1.0087662
12	0x3f7fee4e	0.99973
13	0x3f7ea726	0.994738
14	0x3f812765	1.0090147
15	0x3f817eec	1.0116858
16	0x3f801ef7	1.000945
17	0x3f7f54ea	0.99738944
18	0x3f8140f2	1.0097945
19	0x3f7fb180	0.9988022
20	0x3f837de3	1.0272793
21	0x3f7feedb	0.9997384
22	0x3f7d64e7	0.9898209
23	0x3f7fccfa	0.99922144
24	0x3f7dc81b	0.9913346
25	0x3f818671	1.0119153
26	0x3f7ef472	0.99591744
27	0x3f7c5069	0.98560196
28	0x3f81d6f2	1.0143721
29	0x3f800c9b	1.0003847
30	0x3f7f5fd1	0.9975558
31	0x3f7de412	0.9917613

norm2.bias f4 [32]
0	0x3b422219	0.0029622375
1	0x3b964982	0.0045863995
2	0x3bc67e62	0.0060575465
3	0xbaf1d283	-0.0018449578
4	0xbb22f6af	-0.0024866273
5	0x3b26816b	0.002540673
6	0x3b472fcf	0.0030393486
7	0xba9e95bc	-0.0012099068
8	0xbab756fe	-0.0013987718
9	0xb98fadb2	-0.00027404499
10	0xba50b0a3	-0.0007960891
11	0x3a4ccc38	0.00078124134
12	0xbaaeb0f5	-0.0013327884
13	0xba566bd7	-0.00081795215
14	0x3b050e73	0.0020302802
15	0x3abac9ec	0.0014250851
16	0xbb01f0fa	-0.001982747
17	0xbacef206	-0.0015788681
18	0x3b880345	0.0041507804
19	0xba50c0a9	-0.0007963279
20	0x3c4b1ebf	0.012397467
21	0xbaa4d9b0	-0.0012577083
22	0x3b1d9221	0.0024043398
23	0x3b2cc4ae	0.0026362347
24	0x3acbe31a	0.0015555352
25	0xbb40c13f	-0.0029412059
26	0x3b0b598d	0.0021263093
27	0x3a1ac4dc	0.0005903968
28	0x3b0df026	0.0021658032
29	0xb95d3fa6	-0.00021099913
30	0xb932b318	-0.0001704212
31	0xba9e9f8a	-0.001210199

norm3.weight f4 [64]
0	0x3f81a89e	1.0129583
1	0x3f80fb17	1.0076627
2	0x3f816584	1.0109105
3	0x3f81dc60	1.0145378
4	0x3f7df5b1	0.9920302
5	0x3f7de1cc	0.99172664
6	0x3f8174d4	1.0113778
7	0x3f7d9bbe	0.9906577
8	0x3f8050c2	1.0024645
9	0x3f7f0206	0.9961246
10	0x3f809468	1.004529
11	0x3f801226	1.0005538
12	0x3f7e82bc	0.99418235
13	0x3f7fb14a	0.99879897
14	0x3f816626	1.0109298
15	0x3f7e0211	0.99221903
16	0x3f7f8b2c	0.99821734
17	0x3f7fbe14	0.9989941
18	0x3f81d801	1.0144044
19	0x3f7e9e3f	0.99460214
20	0x3f8101a1	1.0078622
21	0x3f7f8ac9	0.99821144
22	0x3f7f78e0	0.99793816
23	0x3f7eb781	0.99498755
24	0x3f80996a	1.0046818
25	0x3f819c25	1.0125777
26	0x3f827d29	1.0194446
27	0x3f7f936b	0.99834317
28	0x3f80cb68	1.0062075
29	0x3f824835	1.0178286
30	0x3f7e90c9	0.99439675
31	0x3f81d175	1.0142046
32	0x3f7f89c5	0.99819595
33	0x3f7e5922	0.99354756
34	0x3f7fd570	0.99935055
35	0x3f83022a	1.0235035
36	0x3f8065fa	1.0031121
37	0x3f815d52	1.0106604
38	0x3f801c82	1.00087
39	0x3f80add4	1.0053048
40	0x3f803911	1.0017415
41	0x3f803e1c	1.0018954
42	0x3f815a91	1.0105764
43	0x3f813e6f	1.0097178
44	0x3f801b63	1.0008358
45	0x3f7e9948	0.9945264
46	0x3f80f705	1.0075384
47	0x3f81acc8	1.0130854
48	0x3f8097f7	1.0046376
49	0x3f7ec56f	0.9952001
50	0x3f80b4d4	1.0055184
51	0x3f80e5b5	1.0070101
52	0x3f7eaadc	0.9947946
53	0x3f7fda90	0.99942875
54	0x3f80efca	1.0073178
55	0x3f813021	1.0092813
56	0x3f81b573	1.0133499
57	0x3f7fcfd1	0.9992648
58	0x3f80b9c3	1.005669
59	0x3f81078b	1.0080427
60	0x3f8052cc	1.0025268
61	0x3f822481	1.016739
62	0x3f803d69	1.0018741
63	0x3f807bff	1.0037841

norm3.bias f4 [64]
0	0x3b59a6c8	0.0033210982
1	0xbb8f55dd	-0.0043742494
2	0x3b899f23	0.004199879
3	0x3be8c76b	0.0071038506
4	0x3b87f828	0.0041494556
5	0xb9b9c37b	-0.00035431594
6	0x3a158dbc	0.0005705019
7	0x3b984b67	0.0046476605
8	0x3b9cad9c	0.004781438
9	0xbab65822	-0.0013911764
10	0x3a3dda6b	0.00072423246
11	0x3a95c030	0.0011425074
12	0x3b147655	0.002265354
13	0x3a9aea8a	0.0011819166
14	0x3b994260	0.004677102
15	0x3bd0273a	0.0063523324
16	0x3c3537a7	0.011060632
17	0xb990099d	-0.00027472983
18	0x3b0dc41f	0.002163179
19	0x3b46717a	0.003028004
20	0x3b2646d0	0.0025371797
21	0xbab42f7e	-0.0013747064
22	0xbb005a37	-0.0019585022
23	0xbb819e84	-0.003955664
24	0x3986bfbe	0.0002570133
25	0x3ba02ae3	0.004887925
26	0xbb8cf3ce	-0.0043015247
27	0x3b2042f3	0.0024453967
28	0xbb4ae014	-0.0030956315
29	0x3bbf0fd3	0.005830744
30	0x3ad1e31e	0.0016013121
31	0x3b730db9	0.0037087037
32	0x3b834b9d	0.0040068165
33	0x3bc7b06a	0.0060940282
34	0x3b0827bc	0.0020775637
35	0x3a2318c0	0.00062216446
36	0x3b5f01b6	0.003402812
37	0x3c098e0b	0.008395682
38	0x3b08c5fe	0.0020869966
39	0x3bb6cf52	0.0055789137
40	0x3b535afc	0.0032250276
41	0x3b323727	0.0027193518
42	0xbb8dd634	-0.0043285135
43	0x3bf1809a	0.007370067
44	0xbad43a32	-0.001619166
45	0x3ba73854	0.0051031504
46	0x3b669f9b	0.0035190347
47	0xbb0284dc	-0.0019915616
48	0x3b978b4a	0.004624759
49	0x3bb56060	0.0055351704
50	0x3b12a182	0.0022374098
51	0xbab6161d	-0.0013892088
52	0x3b88cc22	0.004174725
53	0x3b8e9969	0.004351784
54	0x3a0725cb	0.0005155473
55	0x3ae5cd44	0.0017532487
56	0x3a896c01	0.0010484458
57	0x3b9d4a7e	0.00480014
58	0x3b8d7300	0.0043166876
59	0x3b381614	0.0028089331
60	0x3aa8f8ea	0.0012891565
61	0x3c1955cc	0.0093588345
62	0x3b1a824f	0.0023576205
63	0x3b095bbb	0.0020959217

head_linears1.0.weight f4 [32, 16]
0	0xbe0e7afa	-0.139141
1	0xbddbe5a7	-0.10737162
2	0x3e128539	0.14308633
3	0xbe47d425	-0.1951452
4	0x3ded4ec8	0.11587292
5	0xbe4d392d	-0.20041342
6	0xbdb025b8	-0.08600944
7	0xbda0f402	-0.07859041
8	0xbe046520	-0.12929201
9	0xbe35a224	-0.17737633
10	0x3e16257a	0.14662734
11	0x3e3f3bce	0.18675157
12	0x3e389885	0.18026932
13	0x3d1b7a82	0.03795863
14	0x3e6bb036	0.23016438
15	0xbbb94d99	-0.0056550023
16	0xbe390c24	-0.18071038
17	0x3dd298ba	0.102830365
18	0xbe528bfa	-0.2056121
19	0xbe63f63f	-0.22261904
20	0x3d804193	0.06262507
21	0x3dc89c46	0.09795432
22	0xbe1d9b13	-0.15391187
23	0xbe3d3fae	-0.18481323
24	0xbe6e7670	-0.23287368
25	0xbe00fb6b	-0.12595908
26	0xbdfaf07a	-0.122528985
27	0xbcaa2b53	-0.020772612
28	0x3e1ae848	0.15127671
29	0xbc331248	-0.010929652
30	0xbe6cc35d	-0.231214
31	0xbd0dbf02	-0.034605987
32	0x3e8f0a3d	0.279375
33	0x3e1a156c	0.15047234
34	0x3e7306cd	0.23733063
35	0xbe23ed1e	-0.16008422
36	0x3cab76f8	0.020930752
37	0x3e62f37d	0.22163196
38	0xbe84b0da	-0.25916177
39	0xbd747046	-0.059677385
40	0xbdddfff9	-0.108398385
41	0xbe4a0b1a	-0.19730797
42	0x3decfe46	0.11571936
43	0x3e016ba1	0.12638713
44	0x3e0587e1	0.13040115
45	0x3e03230e	0.12806341
46	0xbe5c9b8a	-0.21543708
47	0x3d6c677c	0.057715878
48	0xbe3d2075	-0.18469413
49	0x3e877cf0	0.26462507
50	0x3e425eaa	0.18981424
51	0xbdaa95cb	-0.08329352
52	0xbb95aa53	-0.0045674234
53	0xbe5d4a1f	-0.21610306
54	0x3d9813a5	0.07425622
55	0xbcc38f74	-0.023872115
56	0xbe4027ea	-0.18765226
57	0xbc17a797	-0.009256265
58	0x3e5cfd10	0.2158091
59	0x3e478f3f	0.19488238
60	0xbe446be6	-0.19181785
61	0xbc97935d	-0.018502885
62	0x3d68543b	0.056720953
63	0x3dfc254e	0.12311803
64	0x3e4ff88a	0.20309654
65	0x3e26750d	0.16255589
66	0x3d853b26	0.06505422
67	0xbdc8bdbe	-0.098018155
68	0xbc8a130f	-0.016854791
69	0xbe1c39da	-0.15256444
70	0xbde16b60	-0.11006808
71	0x3da8de8a	0.08245571
72	0x3e6293d1	0.221267
73	0xbdba468f	-0.09095489
74	0xbe6c2c7a	-0.23063841
75	0x3e43ded7	0.19127975
76	0xbe008ca1	-0.12553646
77	0x3d1ff89f	0.039055463
78	0x3dbf605c	0.09344551
79	0xbe2262fb	-0.1585807
80	0x3c6b5260	0.014362901
81	0xbd9ab389	-0.07553775
82	0x3e54a2e0	0.20765257
83	0xbc007250	-0.007839754
84	0x3e177cfe	0.14793774
85	0x3dd42562	0.10358693
86	0xbcb3ca59	-0.021947073
87	0xbdd48e28	-0.10378677
88	0xbdef4524	-0.116831094
89	0x3a071244	0.0005152563
90	0xbe30ec7c	-0.17277712
91	0xbe6b5c0f	-0.22984336
92	0x3dbd5a71	0.09245766
93	0x3e338da7	0.17534505
94	0x3df38f4f	0.11892568
95	0xbd3f4706	-0.046698593
96	0x3cf7ef87	0.030265583
97	0xbd52da7c	-0.051477894
98	0xbd682cec	-0.056683466
99	0xbe0f653d	-0.14003463
100	0x3e2c5ebc	0.16833013
101	0xbd2e6fc1	-0.042587046
102	0xbe811037	-0.25207683
103	0x3d5b0476	0.05347105
104	0x3df9f7fb	0.12205502
105	0x3e19d6b4	0.15023309
106	0xbe024a8c	-0.1272375
107	0x3d36ec3d	0.044658888
108	0xbe11d9d8	-0.14243257
109	0x3e74f8af	0.2392299
110	0xbe392e21	-0.18084003
111	0xbe3f1a89	-0.18662466
112	0xbe563753	-0.20919542
113	0xbe2e6a8c	-0.17032832
114	0xbd3d2a28	-0.04618278
115	0x3e41f4f1	0.18941094
116	0xbe132ff0	-0.14373755
117	0x3de5e213	0.11224761
118	0xbdc30c1b	-0.09523793
119	0x3d82c26b	0.063847385
120	0xbb0aa1cd	-0.002115357
121	0x3e03832c	0.12843007
122	0x3e23c8be	0.15994546
123	0xbe5fc441	-0.21852209
124	0x3d8e97fb	0.06962582
125	0x3cbcf9d6	0.02306835
126	0xbe399c1b	-0.18125956
127	0xbe6f9b1e	-0.23399016
128	0xbd47db47	-0.048793104
129	0x3d9de20b	0.0770913
130	0xbbd6ac42	-0.0065512965
131	0x3dd394fe	0.103311524
132	0x3ccd85b7	0.025088174
133	0xbd7257b5	-0.059165675
134	0x3bf4ccaa	0.007470687
135	0xbc945c25	-0.018110344
136	0x3e6c350e	0.23067114
137	0x3caecf73	0.021339154
138	0x3e37d991	0.17954089
139	0xbe827999	-0.25483397
140	0x3e21ff32	0.15820006
141	0xbe517247	-0.2045375
142	0xbe609f0b	-0.2193567
143	0xbd98bb1b	-0.074575625
144	0xbe23ffe8	-0.16015589
145	0x3dcc7d14	0.09984794
146	0xbe30ae07	-0.17253886
147	0x3e0076b5	0.12545283
148	0xbdaf9847	-0.085739665
149	0x3d3f7bee	0.046749048
150	0x3d99ed88	0.075160086
151	0xbe07f04e	-0.13275263
152	0x3d30808d	0.043091346
153	0xbe5da7c7	-0.21646033
154	0x3e82f636	0.2557847
155	0xbd80bb03	-0.0628567
156	0xbd41563c	-0.04720138
157	0xbd7b9bca	-0.06142787
158	0x3bc7ee20	0.0061013848
159	0x3e3601d8	0.17774141
160	0xbdf5d9cf	-0.12004434
161	0x3d121690	0.03566605
162	0xbd912e75	-0.07088939
163	0x3d336c91	0.04380471
164	0xbc5019e1	-0.0127014825
165	0x3bc361b1	0.0059625735
166	0xbdd3410b	-0.1031514
167	0xbde6673b	-0.112501584
168	0xbe66c5c0	-0.22536373
169	0xbe3d8834	-0.18508989
170	0xbe23ba48	-0.1598903
171	0xbe3ce0e6	-0.18445167
172	0xbe65eecd	-0.22454377
173	0x3e5fc512	0.2185252
174	0x3cb195f6	0.021677952
175	0x3dd5d793	0.10441508
176	0x3e1faa64	0.15592343
177	0xbe176bfe	-0.1478729
178	0x3d92a194	0.07159725
179	0xbd97303f	-0.07382249
180	0xbdd95d69	-0.1061352
181	0xbe79747c	-0.24360842
182	0x3d608fc1	0.054824594
183	0x3e6ae466	0.2293869
184	0xbe013391	-0.12617327
185	0xbdb3933f	-0.08768319
186	0x3e6e9161	0.23297645
187	0x3e5680b2	0.20947531
188	0x3db7f23b	0.08981749
189	0xbe75272d	-0.23940726
190	0x3e62eca5	0.22160585
191	0xbbf6094f	-0.007508434
192	0xbd905901	-0.07048226
193	0x3e146446	0.14491376
194	0x3e826460	0.25467205
195	0x3e53b256	0.20673499
196	0xbe7fc985	-0.24979217
197	0xbdf04c4e	-0.11733304
198	0xbd373445	-0.044727582
199	0xbd4e88c8	-0.050423414
200	0xbda6110c	-0.0810872
201	0x3e3d8204	0.18506628
202	0x3e11da90	0.14243531
203	0x3c871388	0.016488805
204	0xbe70d0b7	-0.23517118
205	0x3c455a1d	0.01204541
206	0x3d6329fa	0.055459954
207	0x3d3f5d75	0.046719987
208	0xbdb11cd4	-0.08648077
209	0x3e21b5c1	0.1579199
210	0xbe518b6b	-0.2046334
211	0xbdb269b4	-0.087115675
212	0x3dbe3772	0.09287919
213	0xbe302a6b	-0.17203681
214	0xbcb76d8d	-0.022391105
215	0xbe1bfd00	-0.1523323
216	0x3e0e0d59	0.13872279
217	0x3e1162f4	0.14197904
218	0xbd8bda5f	-0.0682876
219	0xbda02d9d	-0.078212
220	0x3e62fe85	0.22167404
221	0x3e22b79c	0.15890354
222	0x3db96c93	0.09053912
223	0xbdf58dc5	-0.11989931
224	0xbd909d66	-0.07061271
225	0x3e7e780a	0.24850479
226	0xbe26301c	-0.1622929
227	0x3e5ff62b	0.2187125
228	0xbda51433	-0.08060493
229	0xbe2fcb9a	-0.17167512
230	0x3d910340	0.07080698
231	0x3de939c0	0.11387968
232	0xbdc822be	-0.097722515
233	0x3e334a5a	0.17508832
234	0x3e0a4169	0.13501514
235	0xbe4d2206	-0.2003251
236	0x3c0e8212	0.008698003
237	0x3cf9f55e	0.030512508
238	0xbd360736	-0.04444047
239	0xbde88dba	-0.11355157
240	0x3d0a09d8	0.033700794
241	0x3ddbb9ca	0.10728796
242	0xbd0e5b7c	-0.034755215
243	0x3e698e12	0.22808102
244	0xbe0e8078	-0.13916194
245	0x3e1b9d36	0.1519669
246	0xbe61e856	-0.22061285
247	0xbe624766	-0.22097549
248	0x3e0f5491	0.13997103
249	0xbe5abc08	-0.2136079
250	0x3df305be	0.118663296
251	0xbcf0f62c	-0.029414259
252	0x3e04f7f5	0.12985213
253	0x3d417c31	0.04723758
254	0x3d992f5b	0.074797355
255	0x3e25670a	0.16152588

head_linears1.0.bias f4 [32]
0	0x3b8c9306	0.0042899875
1	0xbd3c7c4a	-0.04601697
2	0x3d1b228d	0.037874747
3	0x3e121b5e	0.14268252
4	0xbe0e240b	-0.13880937
5	0xbe0860a2	-0.13318112
6	0x3dd4db37	0.103933744
7	0x3e183c41	0.14866735
8	0x3d235930	0.039879978
9	0x3e800593	0.25004253
10	0xbd4cf60c	-0.050039336
11	0x3e11df6a	0.14245382
12	0xbc17da6f	-0.009268387
13	0xbe4ce539	-0.20009317
14	0xbcf31fa9	-0.029678183
15	0x3e59d981	0.21274377
16	0xbe82332d	-0.2542967
17	0x3db07c34	0.0861744
18	0xbe1a907e	-0.15094182
19	0x3d9be9e1	0.07612968
20	0x3e291616	0.16512331
21	0x3d2bd681	0.041952614
22	0x3e7a20c0	0.24426556
23	0xbe4cca97	-0.19999157
24	0xbe81e82d	-0.2537245
25	0xbd3ec860	-0.04657781
26	0xbd9ed891	-0.077561505
27	0x3e5a3e55	0.2131284
28	0x3d5cac07	0.053874996
29	0x3dc5ba12	0.09654631
30	0xbe096865	-0.1341873
31	0xbe384fac	-0.17999142

head_linears1.1.weight f4 [32, 16]
0	0x3dca441e	0.098762736
1	0x3e52ee62	0.20598748
2	0xbd910e7c	-0.07082841
3	0xbe3211fe	-0.17389676
4	0xbe7b3e92	-0.24535587
5	0x3e0a5dea	0.13512388
6	0x3e0be47b	0.13661377
7	0xbdf9a1da	-0.12189074
8	0xbcb286e8	-0.021792844
9	0x3e099b4c	0.13438147
10	0x3dd13365	0.10214881
11	0x3dd62261	0.10455776
12	0xbdfa8637	-0.12232631
13	0x3e8277cd	0.25482026
14	0x3e020d83	0.12700467
15	0xbd8c9aa6	-0.06865434
16	0xbd832cb1	-0.064050086
17	0x3dec83e4	0.11548594
18	0x3d738a9f	0.05945837
19	0xbe492dd8	-0.19646394
20	0xbe12d89e	-0.14340445
21	0x3d99e4dc	0.075143546
22	0x3d616001	0.055023197
23	0xbd3ea17a	-0.046540715
24	0xbb153d7d	-0.0022772246
25	0xbe7af59a	-0.24507752
26	0xbd12a5eb	-0.035802763
27	0x3d55fd27	0.052243378
28	0xbd38eac9	-0.045145784
29	0xbcfd668f	-0.030932693
30	0xbdba7cee	-0.0910586
31	0xbe430126	-0.19043407
32	0xbd538be1	-0.05164707
33	0xbd448ed2	-0.047987767
34	0xbd35493d	-0.0442593
35	0x3dd97331	0.10617674
36	0xbe0a5805	-0.1351014
37	0xbde65d8c	-0.112483114
38	0x3e5044d8	0.20338762
39	0x3e3eb692	0.18624333
40	0xbd1ff49a	-0.03905163
41	0x3e148d45	0.14507015
42	0xbc67de66	-0.014152145
43	0xbe495367	-0.19660722
44	0xbe625344	-0.22102076
45	0xbe046058	-0.12927377
46	0x3e4a6706	0.19765863
47	0x3e581901	0.21103288
48	0xbd8f6291	-0.07001222
49	0xbe3c6b3d	-0.18400283
50	0xbd725d7e	-0.059171192
51	0xbe46ece4	-0.19426304
52	0xbc8e8e1f	-0.017401753
53	0xbda670a5	-0.08126954
54	0x3e4bdc7f	0.19908331
55	0x3e38a0a6	0.18030033
56	0x3dbf86da	0.09351893
57	0xbe3a64d8	-0.18202531
58	0x3cec7c48	0.028867856
59	0x3dc2ef8b	0.095183454
60	0x3e11e7ae	0.14248535
61	0xbddccdc8	-0.10781437
62	0xbdeb0abe	-0.11476658
63	0x3d982fd4	0.074309975
64	0xbd3355bc	-0.043782935
65	0xbe85fb9c	-0.26168525
66	0xbd2b83ea	-0.04187385
67	0x3db9869f	0.0905888
68	0x3dcad0b3	0.099030875
69	0xbe4333d9	-0.19062747
70	0x3e2d1b81	0.16905023
71	0xbe23e159	-0.16003932
72	0x3d37c14e	0.044862084
73	0xbdd26d3a	-0.102747396
74	0x3d85961b	0.06522771
75	0xbd8a4bb0	-0.067527175
76	0x3e4c276f	0.19936918
77	0x3e7e0a04	0.24808508
78	0x3e4a481d	0.19754072
79	0x3d5a998d	0.053369094
80	0x3e676a04	0.22599036
81	0x3d3f99d6	0.04677757
82	0xbd0907f5	-0.033454854
83	0xbd33d7f1	-0.04390711
84	0x3c4b9a13	0.012426871
85	0x3d919bb8	0.07109779
86	0x3d067321	0.03282464
87	0x3cf3fa13	0.02978233
88	0x3dde8581	0.108653076
89	0x3e26b812	0.16281155
90	0xbdaf7026	-0.085663125
91	0x3d85d121	0.06534029
92	0xbd9298c4	-0.07158044
93	0xbe28cf10	-0.16485238
94	0xbe2f6323	-0.17127661
95	0xbe567284	-0.20942122
96	0x3e424416	0.18971285
97	0x3e017008	0.12640393
98	0xbe01912c	-0.12653035
99	0xbe5c12da	-0.21491566
100	0x3e6915cc	0.22762221
101	0xbdee4746	-0.11634688
102	0xbe2794dc	-0.16365379
103	0x3e4605e5	0.19338186
104	0xbde0a63e	-0.10969208
105	0xbe3ca309	-0.18421568
106	0x3e010048	0.12597764
107	0x3e268157	0.16260277
108	0xbe5cdf53	-0.21569566
109	0x3df3a8d6	0.11897437
110	0xbd8b5482	-0.06803228
111	0x3cd5126b	0.026009759
112	0x3cfc5eef	0.030806987
113	0xbdf6d34c	-0.120520204
114	0x3e73c411	0.23805262
115	0x3e56cce0	0.20976591
116	0x3e5d5ad1	0.21616675
117	0xbdb700b3	-0.0893568
118	0x3d0f2794	0.034949854
119	0x3da0ff4c	0.07861194
120	0x3e1c4991	0.15262438
121	0x3d0d9bba	0.03457234
122	0x3df91756	0.12162654
123	0x3e4c913e	0.1997728
124	0xbe1da2fe	-0.15394208
125	0x3e394315	0.18091996
126	0xbdd5e810	-0.10444653
127	0xbe34bacc	-0.17649382
128	0xbc84bfcd	-0.016204739
129	0x3e1db192	0.15399769
130	0xbd76feec	-0.060301706
131	0xbe3a54f0	-0.18196464
132	0xbe19a235	-0.15003283
133	0xbdabe26a	-0.083927944
134	0xbe7c4229	-0.24634613
135	0x3e39ae1c	0.18132824
136	0x3dbdd74f	0.092695825
137	0x3e06766b	0.1313111
138	0xbe39d33a	-0.18146983
139	0x3e0df99e	0.13864753
140	0xbce723fb	-0.028215399
141	0xbe4137f7	-0.18869005
142	0x3e2eb4d8	0.17061174
143	0x3c6886b1	0.014192269
144	0x3e514c3e	0.2043924
145	0x3d4489fd	0.04798316
146	0x3debb44b	0.115089975
147	0xbe1ce486	-0.1532155
148	0xbe40eea7	-0.18841039
149	0x3dbe148e	0.09281264
150	0x3e40df9c	0.188353
151	0xbe193ce7	-0.14964639
152	0xbdfc3833	-0.12315407
153	0x3d1e3cf9	0.038632367
154	0x3e32aa4e	0.17447779
155	0xbd59d7ca	-0.053184308
156	0xbd4fbe76	-0.050718747
157	0xbd4c8616	-0.04993256
158	0xbe150d30	-0.14555812
159	0x3e46624d	0.19373436
160	0x3ded6b2c	0.11592707
161	0x3da9bc2b	0.08287843
162	0xbc8c5492	-0.01713017
163	0x3c4601fd	0.012085435
164	0x3e690ffa	0.22760001
165	0x3dd93821	0.10606409
166	0x3e0e61d5	0.13904507
167	0xbe51104a	-0.2041637
168	0x3e2b4b82	0.16728023
169	0x3d67ec04	0.056621566
170	0xbe5487b9	-0.20754899
171	0x3da15763	0.07877996
172	0x3cc10e32	0.02356634
173	0xbdfbc9ed	-0.12294374
174	0x3df9d6ed	0.12199197
175	0x3d93aeff	0.07211112
176	0x3dabb48a	0.083840445
177	0xbe0232f0	-0.12714744
178	0xbe35e517	-0.17763172
179	0x3e4676a9	0.19381203
180	0x3d04296f	0.032266077
181	0x3ddc6e25	0.10763196
182	0xbc362c61	-0.011118979
183	0xbdf732d3	-0.12070241
184	0x3e4ec9dc	0.2019419
185	0xbc810d85	-0.015753517
186	0xbe0758f8	-0.13217533
187	0x3e48f70c	0.19625491
188	0x3e25a18b	0.16174905
189	0x3e819fa6	0.25317115
190	0xbdea63cd	-0.11444817
191	0x3e3329e3	0.17496447
192	0xbe4ca8e5	-0.19986303
193	0xbde58c62	-0.112084165
194	0x3d7eaceb	0.062176626
195	0x3e389fa5	0.1802965
196	0x3d1d0b19	0.03834066
197	0xbe456fb1	-0.19280888
198	0xbe148c74	-0.14506704
199	0x3e1d3ce5	0.1535526
200	0x3dc78fcb	0.09744223
201	0x3e19e56a	0.15028921
202	0x3d7c1df5	0.061552007
203	0x3a325512	0.00068028376
204	0xbd4949eb	-0.04914276
205	0xbcf774e9	-0.030207114
206	0x3e0fc300	0.1403923
207	0x3de30309	0.11084563
208	0xbcb3b114	-0.021935023
209	0x3e30c09e	0.17260978
210	0xbd594fbf	-0.053054567
211	0xbe080faa	-0.13287225
212	0x3d45a4cd	0.04825287
213	0x3d7ac27a	0.061220624
214	0xbe5e8516	-0.21730456
215	0x3e70bc81	0.23509409
216	0xbe552f2d	-0.20818777
217	0x3dc61284	0.096715
218	0xbe38af2f	-0.18035577
219	0xbdab7502	-0.08371927
220	0x3e658f3c	0.22417921
221	0xbc52e42e	-0.012871785
222	0x3c7b8368	0.015351154
223	0x3e365051	0.17804076
224	0x3e27ab04	0.16373831
225	0x3bf4e80d	0.0074739517
226	0x3e7de73a	0.24795237
227	0x3df3a35f	0.11896395
228	0x3e53e56d	0.20692988
229	0x3e5728c2	0.21011642
230	0xbe722daf	-0.2365024
231	0x3dd8dcd1	0.105889924
232	0x3d801ac1	0.06255103
233	0xbc6ff4b3	-0.014645743
234	0x3e30f4f4	0.17280942
235	0xbd9cda32	-0.07658805
236	0x3e50d380	0.20393181
237	0xbe4b079e	-0.19827124
238	0xbe2ab0fd	-0.16669078
239	0x3d6c7d04	0.05773641
240	0x3e3c8a04	0.18412024
241	0x3e0bd9b6	0.13657269
242	0xbe3c225e	-0.18372485
243	0x3bf5a5ef	0.0074965875
244	0x3d8f208b	0.06988629
245	0x3d81b1ac	0.06332716
246	0xbdd1d354	-0.10245386
247	0xbdf3325b	-0.11874839
248	0x39c97d11	0.0003843089
249	0xbc641c60	-0.013922781
250	0xbdcd779b	-0.100325786
251	0x3c4fb74d	0.01267798
252	0xbd77aa8a	-0.060465373
253	0x3e248853	0.16067629
254	0xbbcd6452	-0.0062680626
255	0xbdb3292f	-0.087480895

head_linears1.1.bias f4 [32]
0	0x3e0c0a14	0.1367572
1	0xbe4a58b6	-0.19760403
2	0xbdb49d6e	-0.0881909
3	0x3c28777e	0.010282395
4	0xbe05394a	-0.13010135
5	0xbde4940c	-0.1116105
6	0x3e35a9be	0.17740533
7	0xbe10a6ae	-0.14126083
8	0xbccf2877	-0.02528785
9	0x3e5a721e	0.21332595
10	0xbd46aea4	-0.048506394
11	0x3e7a525c	0.2444548
12	0xbdb71269	-0.08939058
13	0x3df2e04b	0.11859187
14	0xbd8eb665	-0.06968383
15	0x3da402b3	0.08008327
16	0xbe66aea4	-0.22527558
17	0xbe3b7610	-0.18306756
18	0x3d5a996d	0.053368974
19	0x3e5ddf5c	0.21667236
20	0xbcdb4260	-0.026765049
21	0xbde185ab	-0.11011823
22	0xbdd199c0	-0.102344036
23	0x3e4e6213	0.201546
24	0xbe71c0f5	-0.23608764
25	0xbdf62555	-0.12018839
26	0xbdc32521	-0.09528566
27	0x3e37d4a4	0.1795221
28	0xbc4c7b43	-0.01248056
29	0xbd548058	-0.05188021
30	0xbe162da5	-0.1466585
31	0xbddedb9f	-0.10881733
